…
To enable the following instructions: AVX2 AVX512F AVX512_VNNI AVX512_BF16 AVX512_FP16 AVX_VNNI AMX_TILE AMX_INT8 AMX_BF16 FMA, in other operations, rebuild TensorFlow with the appropriate compiler flags.
2025-12-24 01:41:16.271879: I tensorflow/core/util/port.cc:153] oneDNN custom operations are on. You may see slightly different numerical results due to floating-point round-off errors from different computation orders. To turn them off, set the environment variable `TF_ENABLE_ONEDNN_OPTS=0`.
Split Learning Scheme: Overall Cutting_layer 4/13
Total number of batches per epoch for each client is  162
64
original channel size of smashed-data is 128
added bottleneck, new channel size of smashed-data is 8
local:
Sequential(
  (0): ResizeLayer()
  (1): Conv2d(3, 64, kernel_size=(3, 3), stride=(1, 1), padding=(1, 1))
  (2): BatchNorm2d(64, eps=1e-05, momentum=0.1, affine=True, track_running_stats=True)
  (3): ReLU(inplace=True)
  (4): MaxPool2d(kernel_size=2, stride=2, padding=0, dilation=1, ceil_mode=False)
  (5): Conv2d(64, 128, kernel_size=(3, 3), stride=(1, 1), padding=(1, 1))
  (6): BatchNorm2d(128, eps=1e-05, momentum=0.1, affine=True, track_running_stats=True)
  (7): ReLU(inplace=True)
  (8): MaxPool2d(kernel_size=2, stride=2, padding=0, dilation=1, ceil_mode=False)
  (9): Conv2d(128, 8, kernel_size=(3, 3), stride=(1, 1), padding=(1, 1))
  (10): LCALayer()
  (11): Sigmoid()
)
cloud:
Sequential(
  (0): Conv2d(8, 128, kernel_size=(3, 3), stride=(1, 1), padding=(1, 1))
  (1): Conv2d(128, 256, kernel_size=(3, 3), stride=(1, 1), padding=(1, 1))
  (2): BatchNorm2d(256, eps=1e-05, momentum=0.1, affine=True, track_running_stats=True)
  (3): ReLU(inplace=True)
  (4): Conv2d(256, 256, kernel_size=(3, 3), stride=(1, 1), padding=(1, 1))
  (5): BatchNorm2d(256, eps=1e-05, momentum=0.1, affine=True, track_running_stats=True)
  (6): ReLU(inplace=True)
  (7): MaxPool2d(kernel_size=2, stride=2, padding=0, dilation=1, ceil_mode=False)
  (8): Conv2d(256, 512, kernel_size=(3, 3), stride=(1, 1), padding=(1, 1))
  (9): BatchNorm2d(512, eps=1e-05, momentum=0.1, affine=True, track_running_stats=True)
  (10): ReLU(inplace=True)
  (11): Conv2d(512, 512, kernel_size=(3, 3), stride=(1, 1), padding=(1, 1))
  (12): BatchNorm2d(512, eps=1e-05, momentum=0.1, affine=True, track_running_stats=True)
  (13): ReLU(inplace=True)
  (14): MaxPool2d(kernel_size=2, stride=2, padding=0, dilation=1, ceil_mode=False)
  (15): Conv2d(512, 512, kernel_size=(3, 3), stride=(1, 1), padding=(1, 1))
  (16): BatchNorm2d(512, eps=1e-05, momentum=0.1, affine=True, track_running_stats=True)
  (17): ReLU(inplace=True)
  (18): Conv2d(512, 512, kernel_size=(3, 3), stride=(1, 1), padding=(1, 1))
  (19): BatchNorm2d(512, eps=1e-05, momentum=0.1, affine=True, track_running_stats=True)
  (20): ReLU(inplace=True)
  (21): MaxPool2d(kernel_size=2, stride=2, padding=0, dilation=1, ceil_mode=False)
)
classifier:
Sequential(
  (0): Dropout(p=0.5, inplace=False)
  (1): Linear(in_features=512, out_features=512, bias=True)
  (2): ReLU(inplace=True)
  (3): Dropout(p=0.5, inplace=False)
  (4): Linear(in_features=512, out_features=512, bias=True)
  (5): ReLU(inplace=True)
  (6): Linear(in_features=512, out_features=530, bias=True)
)
Namespace(arch='vgg11_bn_sgm', cutlayer=4, batch_size=256, filename='pretrain_False_lambd_16_noise_0.025_epoch_240_bottleneck_noRELU_C8S1_log_1_ATstrength_0.3_lr_0.05_varthres_0.125', folder='saves/facescrub/SCA_new_slotatt_opt_lg1_thre0.125', num_client=1, num_epochs=240, learning_rate=0.05, lambd=16.0, dataset_portion=1.0, client_sample_ratio=1.0, 
…
To enable the following instructions: AVX2 AVX512F AVX512_VNNI AVX512_BF16 AVX512_FP16 AVX_VNNI AMX_TILE AMX_INT8 AMX_BF16 FMA, in other operations, rebuild TensorFlow with the appropriate compiler flags.
2025-12-24 02:11:30.776357: I tensorflow/core/util/port.cc:153] oneDNN custom operations are on. You may see slightly different numerical results due to floating-point round-off errors from different computation orders. To turn them off, set the environment variable `TF_ENABLE_ONEDNN_OPTS=0`.
Split Learning Scheme: Overall Cutting_layer 4/13
Total number of batches per epoch for each client is  162
64
original channel size of smashed-data is 128
added bottleneck, new channel size of smashed-data is 8
local:
Sequential(
  (0): ResizeLayer()
  (1): Conv2d(3, 64, kernel_size=(3, 3), stride=(1, 1), padding=(1, 1))
  (2): BatchNorm2d(64, eps=1e-05, momentum=0.1, affine=True, track_running_stats=True)
  (3): ReLU(inplace=True)
  (4): MaxPool2d(kernel_size=2, stride=2, padding=0, dilation=1, ceil_mode=False)
  (5): Conv2d(64, 128, kernel_size=(3, 3), stride=(1, 1), padding=(1, 1))
  (6): BatchNorm2d(128, eps=1e-05, momentum=0.1, affine=True, track_running_stats=True)
  (7): ReLU(inplace=True)
  (8): MaxPool2d(kernel_size=2, stride=2, padding=0, dilation=1, ceil_mode=False)
  (9): Conv2d(128, 8, kernel_size=(3, 3), stride=(1, 1), padding=(1, 1))
  (10): LCALayer()
  (11): Sigmoid()
)
cloud:
Sequential(
  (0): Conv2d(8, 128, kernel_size=(3, 3), stride=(1, 1), padding=(1, 1))
  (1): Conv2d(128, 256, kernel_size=(3, 3), stride=(1, 1), padding=(1, 1))
  (2): BatchNorm2d(256, eps=1e-05, momentum=0.1, affine=True, track_running_stats=True)
  (3): ReLU(inplace=True)
  (4): Conv2d(256, 256, kernel_size=(3, 3), stride=(1, 1), padding=(1, 1))
  (5): BatchNorm2d(256, eps=1e-05, momentum=0.1, affine=True, track_running_stats=True)
  (6): ReLU(inplace=True)
  (7): MaxPool2d(kernel_size=2, stride=2, padding=0, dilation=1, ceil_mode=False)
  (8): Conv2d(256, 512, kernel_size=(3, 3), stride=(1, 1), padding=(1, 1))
  (9): BatchNorm2d(512, eps=1e-05, momentum=0.1, affine=True, track_running_stats=True)
  (10): ReLU(inplace=True)
  (11): Conv2d(512, 512, kernel_size=(3, 3), stride=(1, 1), padding=(1, 1))
  (12): BatchNorm2d(512, eps=1e-05, momentum=0.1, affine=True, track_running_stats=True)
  (13): ReLU(inplace=True)
  (14): MaxPool2d(kernel_size=2, stride=2, padding=0, dilation=1, ceil_mode=False)
  (15): Conv2d(512, 512, kernel_size=(3, 3), stride=(1, 1), padding=(1, 1))
  (16): BatchNorm2d(512, eps=1e-05, momentum=0.1, affine=True, track_running_stats=True)
  (17): ReLU(inplace=True)
  (18): Conv2d(512, 512, kernel_size=(3, 3), stride=(1, 1), padding=(1, 1))
  (19): BatchNorm2d(512, eps=1e-05, momentum=0.1, affine=True, track_running_stats=True)
  (20): ReLU(inplace=True)
  (21): MaxPool2d(kernel_size=2, stride=2, padding=0, dilation=1, ceil_mode=False)
)
classifier:
Sequential(
  (0): Dropout(p=0.5, inplace=False)
  (1): Linear(in_features=512, out_features=512, bias=True)
  (2): ReLU(inplace=True)
  (3): Dropout(p=0.5, inplace=False)
  (4): Linear(in_features=512, out_features=512, bias=True)
  (5): ReLU(inplace=True)
  (6): Linear(in_features=512, out_features=530, bias=True)
)
the test model is: best
load client 0's local
./saves/facescrub/SCA_new_slotatt_opt_lg1_thre0.125/pretrain_False_lambd_16_noise_0.025_epoch_240_bottleneck_noRELU_C8S1_log_1_ATstrength_0.3_lr_0.05_varthres_0.125/checkpoint_f_best.tar
load cloud
load classifier
Model's smashed-data size is torch.Size([1, 8, 16, 16])
Sequential(
  85.26 k, 1.992% Params, 86.9 MMac, 1.001% MACs, 
  (0): ResizeLayer(0, 0.000% Params, 0.0 Mac, 0.000% MACs, )
  (1): Conv2d(1.79 k, 0.042% Params, 7.34 MMac, 0.085% MACs, 3, 64, kernel_size=(3, 3), stride=(1, 1), padding=(1, 1))
  (2): BatchNorm2d(128, 0.003% Params, 524.29 KMac, 0.006% MACs, 64, eps=1e-05, momentum=0.1, affine=True, track_running_stats=True)
  (3): ReLU(0, 0.000% Params, 262.14 KMac, 0.003% MACs, inplace=True)
  (4): MaxPool2d(0, 0.000% Params, 262.14 KMac, 0.003% MACs, kernel_size=2, stride=2, padding=0, dilation=1, ceil_mode=False)
  (5): Conv2d(73.86 k, 1.726% Params, 75.63 MMac, 0.871% MACs, 64, 128, kernel_size=(3, 3), stride=(1, 1), padding=(1, 1))
  (6): BatchNorm2d(256, 0.006% Params, 262.14 KMac, 0.003% MACs, 128, eps=1e-05, momentum=0.1, affine=True, track_running_stats=True)
  (7): ReLU(0, 0.000% Params, 131.07 KMac, 0.002% MACs, inplace=True)
  (8): MaxPool2d(0, 0.000% Params, 131.07 KMac, 0.002% MACs, kernel_size=2, stride=2, padding=0, dilation=1, ceil_mode=False)
  (9): Conv2d(9.22 k, 0.216% Params, 2.36 MMac, 0.027% MACs, 128, 8, kernel_size=(3, 3), stride=(1, 1), padding=(1, 1))
  (10): LCALayer(0, 0.000% Params, 0.0 Mac, 0.000% MACs, )
  (11): Sigmoid(0, 0.000% Params, 0.0 Mac, 0.000% MACs, )
)
FLOPs: 8.68 GMac, Parameters: 4.28 M
VGG(
  10.04 M, 70.537% Params, 619.53 MMac, 6.723% MACs, 
  (local): Sequential(
    85.26 k, 0.599% Params, 86.9 MMac, 0.943% MACs, 
    (0): ResizeLayer(0, 0.000% Params, 0.0 Mac, 0.000% MACs, )
    (1): Conv2d(1.79 k, 0.013% Params, 7.34 MMac, 0.080% MACs, 3, 64, kernel_size=(3, 3), stride=(1, 1), padding=(1, 1))
    (2): BatchNorm2d(128, 0.001% Params, 524.29 KMac, 0.006% MACs, 64, eps=1e-05, momentum=0.1, affine=True, track_running_stats=True)
    (3): ReLU(0, 0.000% Params, 262.14 KMac, 0.003% MACs, inplace=True)
    (4): MaxPool2d(0, 0.000% Params, 262.14 KMac, 0.003% MACs, kernel_size=2, stride=2, padding=0, dilation=1, ceil_mode=False)
    (5): Conv2d(73.86 k, 0.519% Params, 75.63 MMac, 0.821% MACs, 64, 128, kernel_size=(3, 3), stride=(1, 1), padding=(1, 1))
    (6): BatchNorm2d(256, 0.002% Params, 262.14 KMac, 0.003% MACs, 128, eps=1e-05, momentum=0.1, affine=True, track_running_stats=True)
    (7): ReLU(0, 0.000% Params, 131.07 KMac, 0.001% MACs, inplace=True)
    (8): MaxPool2d(0, 0.000% Params, 131.07 KMac, 0.001% MACs, kernel_size=2, stride=2, padding=0, dilation=1, ceil_mode=False)
    (9): Conv2d(9.22 k, 0.065% Params, 2.36 MMac, 0.026% MACs, 128, 8, kernel_size=(3, 3), stride=(1, 1), padding=(1, 1))
    (10): LCALayer(0, 0.000% Params, 0.0 Mac, 0.000% MACs, )
    (11): Sigmoid(0, 0.000% Params, 0.0 Mac, 0.000% MACs, )
  )
  (cloud): Sequential(
    9.16 M, 64.339% Params, 531.83 MMac, 5.772% MACs, 
    (0): Conv2d(9.34 k, 0.066% Params, 2.39 MMac, 0.026% MACs, 8, 128, kernel_size=(3, 3), stride=(1, 1), padding=(1, 1))
    (1): Conv2d(295.17 k, 2.073% Params, 75.56 MMac, 0.820% MACs, 128, 256, kernel_size=(3, 3), stride=(1, 1), padding=(1, 1))
    (2): BatchNorm2d(512, 0.004% Params, 131.07 KMac, 0.001% MACs, 256, eps=1e-05, momentum=0.1, affine=True, track_running_stats=True)
    (3): ReLU(0, 0.000% Params, 65.54 KMac, 0.001% MACs, inplace=True)
    (4): Conv2d(590.08 k, 4.145% Params, 151.06 MMac, 1.639% MACs, 256, 256, kernel_size=(3, 3), stride=(1, 1), padding=(1, 1))
    (5): BatchNorm2d(512, 0.004% Params, 131.07 KMac, 0.001% MACs, 256, eps=1e-05, momentum=0.1, affine=True, track_running_stats=True)
    (6): ReLU(0, 0.000% Params, 65.54 KMac, 0.001% MACs, inplace=True)
    (7): MaxPool2d(0, 0.000% Params, 65.54 KMac, 0.001% MACs, kernel_size=2, stride=2, padding=0, dilation=1, ceil_mode=False)
    (8): Conv2d(1.18 M, 8.290% Params, 75.53 MMac, 0.820% MACs, 256, 512, kernel_size=(3, 3), stride=(1, 1), padding=(1, 1))
    (9): BatchNorm2d(1.02 k, 0.007% Params, 65.54 KMac, 0.001% MACs, 512, eps=1e-05, momentum=0.1, affine=True, track_running_stats=True)
    (10): ReLU(0, 0.000% Params, 32.77 KMac, 0.000% MACs, inplace=True)
    (11): Conv2d(2.36 M, 16.576% Params, 151.03 MMac, 1.639% MACs, 512, 512, kernel_size=(3, 3), stride=(1, 1), padding=(1, 1))
    (12): BatchNorm2d(1.02 k, 0.007% Params, 65.54 KMac, 0.001% MACs, 512, eps=1e-05, momentum=0.1, affine=True, track_running_stats=True)
    (13): ReLU(0, 0.000% Params, 32.77 KMac, 0.000% MACs, inplace=True)
    (14): MaxPool2d(0, 0.000% Params, 32.77 KMac, 0.000% MACs, kernel_size=2, stride=2, padding=0, dilation=1, ceil_mode=False)
    (15): Conv2d(2.36 M, 16.576% Params, 37.76 MMac, 0.410% MACs, 512, 512, kernel_size=(3, 3), stride=(1, 1), padding=(1, 1))
    (16): BatchNorm2d(1.02 k, 0.007% Params, 16.38 KMac, 0.000% MACs, 512, eps=1e-05, momentum=0.1, affine=True, track_running_stats=True)
    (17): ReLU(0, 0.000% Params, 8.19 KMac, 0.000% MACs, inplace=True)
    (18): Conv2d(2.36 M, 16.576% Params, 37.76 MMac, 0.410% MACs, 512, 512, kernel_size=(3, 3), stride=(1, 1), padding=(1, 1))
    (19): BatchNorm2d(1.02 k, 0.007% Params, 16.38 KMac, 0.000% MACs, 512, eps=1e-05, momentum=0.1, affine=True, track_running_stats=True)
    (20): ReLU(0, 0.000% Params, 8.19 KMac, 0.000% MACs, inplace=True)
    (21): MaxPool2d(0, 0.000% Params, 8.19 KMac, 0.000% MACs, kernel_size=2, stride=2, padding=0, dilation=1, ceil_mode=False)
  )
  (classifier): Sequential(
    797.2 k, 5.600% Params, 798.23 KMac, 0.009% MACs, 
    (0): Dropout(0, 0.000% Params, 0.0 Mac, 0.000% MACs, p=0.5, inplace=False)
    (1): Linear(262.66 k, 1.845% Params, 262.66 KMac, 0.003% MACs, in_features=512, out_features=512, bias=True)
    (2): ReLU(0, 0.000% Params, 512.0 Mac, 0.000% MACs, inplace=True)
    (3): Dropout(0, 0.000% Params, 0.0 Mac, 0.000% MACs, p=0.5, inplace=False)
    (4): Linear(262.66 k, 1.845% Params, 262.66 KMac, 0.003% MACs, in_features=512, out_features=512, bias=True)
    (5): ReLU(0, 0.000% Params, 512.0 Mac, 0.000% MACs, inplace=True)
    (6): Linear(271.89 k, 1.910% Params, 271.89 KMac, 0.003% MACs, in_features=512, out_features=530, bias=True)
  )
)
FLOPs: 9.21 GMac, Parameters: 14.24 M
Model 1 Params: 4279560, Model 2 Params: 14236058
: 528.97 ms
Epoch 0	Test (client-0):	Loss 0.9646 (0.9646)	Prec@1 83.984 (83.984)
 * Prec@1 77.716
Best Average Validation Accuracy is 77.71626286314158
Generating IR ...... (may take a while)
run the attack for training time
…
