…
To enable the following instructions: AVX2 AVX512F AVX512_VNNI AVX512_BF16 AVX512_FP16 AVX_VNNI AMX_TILE AMX_INT8 AMX_BF16 FMA, in other operations, rebuild TensorFlow with the appropriate compiler flags.
2026-04-04 20:32:27.138705: I tensorflow/core/util/port.cc:153] oneDNN custom operations are on. You may see slightly different numerical results due to floating-point round-off errors from different computation orders. To turn them off, set the environment variable `TF_ENABLE_ONEDNN_OPTS=0`.
Split Learning Scheme: Overall Cutting_layer 4/13
Total number of batches per epoch for each client is  162
64
original channel size of smashed-data is 128
added bottleneck, new channel size of smashed-data is 16
local:
Sequential(
  (0): ResizeLayer()
  (1): Conv2d(3, 64, kernel_size=(3, 3), stride=(1, 1), padding=(1, 1))
  (2): BatchNorm2d(64, eps=1e-05, momentum=0.1, affine=True, track_running_stats=True)
  (3): ReLU(inplace=True)
  (4): MaxPool2d(kernel_size=2, stride=2, padding=0, dilation=1, ceil_mode=False)
  (5): Conv2d(64, 128, kernel_size=(3, 3), stride=(1, 1), padding=(1, 1))
  (6): BatchNorm2d(128, eps=1e-05, momentum=0.1, affine=True, track_running_stats=True)
  (7): ReLU(inplace=True)
  (8): MaxPool2d(kernel_size=2, stride=2, padding=0, dilation=1, ceil_mode=False)
  (9): Conv2d(128, 16, kernel_size=(3, 3), stride=(1, 1), padding=(1, 1))
  (10): LCALayer()
  (11): Sigmoid()
)
cloud:
Sequential(
  (0): Conv2d(16, 128, kernel_size=(3, 3), stride=(1, 1), padding=(1, 1))
  (1): Conv2d(128, 256, kernel_size=(3, 3), stride=(1, 1), padding=(1, 1))
  (2): BatchNorm2d(256, eps=1e-05, momentum=0.1, affine=True, track_running_stats=True)
  (3): ReLU(inplace=True)
  (4): Conv2d(256, 256, kernel_size=(3, 3), stride=(1, 1), padding=(1, 1))
  (5): BatchNorm2d(256, eps=1e-05, momentum=0.1, affine=True, track_running_stats=True)
  (6): ReLU(inplace=True)
  (7): MaxPool2d(kernel_size=2, stride=2, padding=0, dilation=1, ceil_mode=False)
  (8): Conv2d(256, 512, kernel_size=(3, 3), stride=(1, 1), padding=(1, 1))
  (9): BatchNorm2d(512, eps=1e-05, momentum=0.1, affine=True, track_running_stats=True)
  (10): ReLU(inplace=True)
  (11): Conv2d(512, 512, kernel_size=(3, 3), stride=(1, 1), padding=(1, 1))
  (12): BatchNorm2d(512, eps=1e-05, momentum=0.1, affine=True, track_running_stats=True)
  (13): ReLU(inplace=True)
  (14): MaxPool2d(kernel_size=2, stride=2, padding=0, dilation=1, ceil_mode=False)
  (15): Conv2d(512, 512, kernel_size=(3, 3), stride=(1, 1), padding=(1, 1))
  (16): BatchNorm2d(512, eps=1e-05, momentum=0.1, affine=True, track_running_stats=True)
  (17): ReLU(inplace=True)
  (18): Conv2d(512, 512, kernel_size=(3, 3), stride=(1, 1), padding=(1, 1))
  (19): BatchNorm2d(512, eps=1e-05, momentum=0.1, affine=True, track_running_stats=True)
  (20): ReLU(inplace=True)
  (21): MaxPool2d(kernel_size=2, stride=2, padding=0, dilation=1, ceil_mode=False)
)
classifier:
Sequential(
  (0): Dropout(p=0.5, inplace=False)
  (1): Linear(in_features=512, out_features=512, bias=True)
  (2): ReLU(inplace=True)
  (3): Dropout(p=0.5, inplace=False)
  (4): Linear(in_features=512, out_features=512, bias=True)
  (5): ReLU(inplace=True)
  (6): Linear(in_features=512, out_features=530, bias=True)
)
Namespace(arch='vgg11_bn_sgm', cutlayer=4, batch_size=256, filename='l10_n0.025_ep300_vt0.15_ls1.0_sl8_it3_bk64_sd64_wu3_at0.15_bnnoRELU_C16S1', folder='saves/facescrub/SCA_new_cemfixed_acc80c16v2_vt0.15', num_client=1, num_epochs=300, learning_rate=0.05, lambd=10.0, dataset_portion=1.0, client_sample_ratio=1.0, noniid=1.0, local_lr=-1.0, dataset='fa
…
To enable the following instructions: AVX2 AVX512F AVX512_VNNI AVX512_BF16 AVX512_FP16 AVX_VNNI AMX_TILE AMX_INT8 AMX_BF16 FMA, in other operations, rebuild TensorFlow with the appropriate compiler flags.
2026-04-05 09:30:41.467248: I tensorflow/core/util/port.cc:153] oneDNN custom operations are on. You may see slightly different numerical results due to floating-point round-off errors from different computation orders. To turn them off, set the environment variable `TF_ENABLE_ONEDNN_OPTS=0`.
Split Learning Scheme: Overall Cutting_layer 4/13
Total number of batches per epoch for each client is  162
64
original channel size of smashed-data is 128
added bottleneck, new channel size of smashed-data is 16
local:
Sequential(
  (0): ResizeLayer()
  (1): Conv2d(3, 64, kernel_size=(3, 3), stride=(1, 1), padding=(1, 1))
  (2): BatchNorm2d(64, eps=1e-05, momentum=0.1, affine=True, track_running_stats=True)
  (3): ReLU(inplace=True)
  (4): MaxPool2d(kernel_size=2, stride=2, padding=0, dilation=1, ceil_mode=False)
  (5): Conv2d(64, 128, kernel_size=(3, 3), stride=(1, 1), padding=(1, 1))
  (6): BatchNorm2d(128, eps=1e-05, momentum=0.1, affine=True, track_running_stats=True)
  (7): ReLU(inplace=True)
  (8): MaxPool2d(kernel_size=2, stride=2, padding=0, dilation=1, ceil_mode=False)
  (9): Conv2d(128, 16, kernel_size=(3, 3), stride=(1, 1), padding=(1, 1))
  (10): LCALayer()
  (11): Sigmoid()
)
cloud:
Sequential(
  (0): Conv2d(16, 128, kernel_size=(3, 3), stride=(1, 1), padding=(1, 1))
  (1): Conv2d(128, 256, kernel_size=(3, 3), stride=(1, 1), padding=(1, 1))
  (2): BatchNorm2d(256, eps=1e-05, momentum=0.1, affine=True, track_running_stats=True)
  (3): ReLU(inplace=True)
  (4): Conv2d(256, 256, kernel_size=(3, 3), stride=(1, 1), padding=(1, 1))
  (5): BatchNorm2d(256, eps=1e-05, momentum=0.1, affine=True, track_running_stats=True)
  (6): ReLU(inplace=True)
  (7): MaxPool2d(kernel_size=2, stride=2, padding=0, dilation=1, ceil_mode=False)
  (8): Conv2d(256, 512, kernel_size=(3, 3), stride=(1, 1), padding=(1, 1))
  (9): BatchNorm2d(512, eps=1e-05, momentum=0.1, affine=True, track_running_stats=True)
  (10): ReLU(inplace=True)
  (11): Conv2d(512, 512, kernel_size=(3, 3), stride=(1, 1), padding=(1, 1))
  (12): BatchNorm2d(512, eps=1e-05, momentum=0.1, affine=True, track_running_stats=True)
  (13): ReLU(inplace=True)
  (14): MaxPool2d(kernel_size=2, stride=2, padding=0, dilation=1, ceil_mode=False)
  (15): Conv2d(512, 512, kernel_size=(3, 3), stride=(1, 1), padding=(1, 1))
  (16): BatchNorm2d(512, eps=1e-05, momentum=0.1, affine=True, track_running_stats=True)
  (17): ReLU(inplace=True)
  (18): Conv2d(512, 512, kernel_size=(3, 3), stride=(1, 1), padding=(1, 1))
  (19): BatchNorm2d(512, eps=1e-05, momentum=0.1, affine=True, track_running_stats=True)
  (20): ReLU(inplace=True)
  (21): MaxPool2d(kernel_size=2, stride=2, padding=0, dilation=1, ceil_mode=False)
)
classifier:
Sequential(
  (0): Dropout(p=0.5, inplace=False)
  (1): Linear(in_features=512, out_features=512, bias=True)
  (2): ReLU(inplace=True)
  (3): Dropout(p=0.5, inplace=False)
  (4): Linear(in_features=512, out_features=512, bias=True)
  (5): ReLU(inplace=True)
  (6): Linear(in_features=512, out_features=530, bias=True)
)
the test model is: best
load client 0's local
./saves/facescrub/SCA_new_cemfixed_acc80c16v2_vt0.15/l10_n0.025_ep300_vt0.15_ls1.0_sl8_it3_bk64_sd64_wu3_at0.15_bnnoRELU_C16S1/checkpoint_f_best.tar
load cloud
load classifier
Model's smashed-data size is torch.Size([1, 16, 16, 16])
Sequential(
  94.48 k, 0.560% Params, 89.26 MMac, 0.130% MACs, 
  (0): ResizeLayer(0, 0.000% Params, 0.0 Mac, 0.000% MACs, )
  (1): Conv2d(1.79 k, 0.011% Params, 7.34 MMac, 0.011% MACs, 3, 64, kernel_size=(3, 3), stride=(1, 1), padding=(1, 1))
  (2): BatchNorm2d(128, 0.001% Params, 524.29 KMac, 0.001% MACs, 64, eps=1e-05, momentum=0.1, affine=True, track_running_stats=True)
  (3): ReLU(0, 0.000% Params, 262.14 KMac, 0.000% MACs, inplace=True)
  (4): MaxPool2d(0, 0.000% Params, 262.14 KMac, 0.000% MACs, kernel_size=2, stride=2, padding=0, dilation=1, ceil_mode=False)
  (5): Conv2d(73.86 k, 0.438% Params, 75.63 MMac, 0.110% MACs, 64, 128, kernel_size=(3, 3), stride=(1, 1), padding=(1, 1))
  (6): BatchNorm2d(256, 0.002% Params, 262.14 KMac, 0.000% MACs, 128, eps=1e-05, momentum=0.1, affine=True, track_running_stats=True)
  (7): ReLU(0, 0.000% Params, 131.07 KMac, 0.000% MACs, inplace=True)
  (8): MaxPool2d(0, 0.000% Params, 131.07 KMac, 0.000% MACs, kernel_size=2, stride=2, padding=0, dilation=1, ceil_mode=False)
  (9): Conv2d(18.45 k, 0.109% Params, 4.72 MMac, 0.007% MACs, 128, 16, kernel_size=(3, 3), stride=(1, 1), padding=(1, 1))
  (10): LCALayer(0, 0.000% Params, 0.0 Mac, 0.000% MACs, )
  (11): Sigmoid(0, 0.000% Params, 0.0 Mac, 0.000% MACs, )
)
FLOPs: 68.83 GMac, Parameters: 16.87 M
VGG(
  10.06 M, 37.486% Params, 624.25 MMac, 0.900% MACs, 
  (local): Sequential(
    94.48 k, 0.352% Params, 89.26 MMac, 0.129% MACs, 
    (0): ResizeLayer(0, 0.000% Params, 0.0 Mac, 0.000% MACs, )
    (1): Conv2d(1.79 k, 0.007% Params, 7.34 MMac, 0.011% MACs, 3, 64, kernel_size=(3, 3), stride=(1, 1), padding=(1, 1))
    (2): BatchNorm2d(128, 0.000% Params, 524.29 KMac, 0.001% MACs, 64, eps=1e-05, momentum=0.1, affine=True, track_running_stats=True)
    (3): ReLU(0, 0.000% Params, 262.14 KMac, 0.000% MACs, inplace=True)
    (4): MaxPool2d(0, 0.000% Params, 262.14 KMac, 0.000% MACs, kernel_size=2, stride=2, padding=0, dilation=1, ceil_mode=False)
    (5): Conv2d(73.86 k, 0.275% Params, 75.63 MMac, 0.109% MACs, 64, 128, kernel_size=(3, 3), stride=(1, 1), padding=(1, 1))
    (6): BatchNorm2d(256, 0.001% Params, 262.14 KMac, 0.000% MACs, 128, eps=1e-05, momentum=0.1, affine=True, track_running_stats=True)
    (7): ReLU(0, 0.000% Params, 131.07 KMac, 0.000% MACs, inplace=True)
    (8): MaxPool2d(0, 0.000% Params, 131.07 KMac, 0.000% MACs, kernel_size=2, stride=2, padding=0, dilation=1, ceil_mode=False)
    (9): Conv2d(18.45 k, 0.069% Params, 4.72 MMac, 0.007% MACs, 128, 16, kernel_size=(3, 3), stride=(1, 1), padding=(1, 1))
    (10): LCALayer(0, 0.000% Params, 0.0 Mac, 0.000% MACs, )
    (11): Sigmoid(0, 0.000% Params, 0.0 Mac, 0.000% MACs, )
  )
  (cloud): Sequential(
    9.17 M, 34.163% Params, 534.19 MMac, 0.770% MACs, 
    (0): Conv2d(18.56 k, 0.069% Params, 4.75 MMac, 0.007% MACs, 16, 128, kernel_size=(3, 3), stride=(1, 1), padding=(1, 1))
    (1): Conv2d(295.17 k, 1.100% Params, 75.56 MMac, 0.109% MACs, 128, 256, kernel_size=(3, 3), stride=(1, 1), padding=(1, 1))
    (2): BatchNorm2d(512, 0.002% Params, 131.07 KMac, 0.000% MACs, 256, eps=1e-05, momentum=0.1, affine=True, track_running_stats=True)
    (3): ReLU(0, 0.000% Params, 65.54 KMac, 0.000% MACs, inplace=True)
    (4): Conv2d(590.08 k, 2.199% Params, 151.06 MMac, 0.218% MACs, 256, 256, kernel_size=(3, 3), stride=(1, 1), padding=(1, 1))
    (5): BatchNorm2d(512, 0.002% Params, 131.07 KMac, 0.000% MACs, 256, eps=1e-05, momentum=0.1, affine=True, track_running_stats=True)
    (6): ReLU(0, 0.000% Params, 65.54 KMac, 0.000% MACs, inplace=True)
    (7): MaxPool2d(0, 0.000% Params, 65.54 KMac, 0.000% MACs, kernel_size=2, stride=2, padding=0, dilation=1, ceil_mode=False)
    (8): Conv2d(1.18 M, 4.397% Params, 75.53 MMac, 0.109% MACs, 256, 512, kernel_size=(3, 3), stride=(1, 1), padding=(1, 1))
    (9): BatchNorm2d(1.02 k, 0.004% Params, 65.54 KMac, 0.000% MACs, 512, eps=1e-05, momentum=0.1, affine=True, track_running_stats=True)
    (10): ReLU(0, 0.000% Params, 32.77 KMac, 0.000% MACs, inplace=True)
    (11): Conv2d(2.36 M, 8.793% Params, 151.03 MMac, 0.218% MACs, 512, 512, kernel_size=(3, 3), stride=(1, 1), padding=(1, 1))
    (12): BatchNorm2d(1.02 k, 0.004% Params, 65.54 KMac, 0.000% MACs, 512, eps=1e-05, momentum=0.1, affine=True, track_running_stats=True)
    (13): ReLU(0, 0.000% Params, 32.77 KMac, 0.000% MACs, inplace=True)
    (14): MaxPool2d(0, 0.000% Params, 32.77 KMac, 0.000% MACs, kernel_size=2, stride=2, padding=0, dilation=1, ceil_mode=False)
    (15): Conv2d(2.36 M, 8.793% Params, 37.76 MMac, 0.054% MACs, 512, 512, kernel_size=(3, 3), stride=(1, 1), padding=(1, 1))
    (16): BatchNorm2d(1.02 k, 0.004% Params, 16.38 KMac, 0.000% MACs, 512, eps=1e-05, momentum=0.1, affine=True, track_running_stats=True)
    (17): ReLU(0, 0.000% Params, 8.19 KMac, 0.000% MACs, inplace=True)
    (18): Conv2d(2.36 M, 8.793% Params, 37.76 MMac, 0.054% MACs, 512, 512, kernel_size=(3, 3), stride=(1, 1), padding=(1, 1))
    (19): BatchNorm2d(1.02 k, 0.004% Params, 16.38 KMac, 0.000% MACs, 512, eps=1e-05, momentum=0.1, affine=True, track_running_stats=True)
    (20): ReLU(0, 0.000% Params, 8.19 KMac, 0.000% MACs, inplace=True)
    (21): MaxPool2d(0, 0.000% Params, 8.19 KMac, 0.000% MACs, kernel_size=2, stride=2, padding=0, dilation=1, ceil_mode=False)
  )
  (classifier): Sequential(
    797.2 k, 2.970% Params, 798.23 KMac, 0.001% MACs, 
    (0): Dropout(0, 0.000% Params, 0.0 Mac, 0.000% MACs, p=0.5, inplace=False)
    (1): Linear(262.66 k, 0.979% Params, 262.66 KMac, 0.000% MACs, in_features=512, out_features=512, bias=True)
    (2): ReLU(0, 0.000% Params, 512.0 Mac, 0.000% MACs, inplace=True)
    (3): Dropout(0, 0.000% Params, 0.0 Mac, 0.000% MACs, p=0.5, inplace=False)
    (4): Linear(262.66 k, 0.979% Params, 262.66 KMac, 0.000% MACs, in_features=512, out_features=512, bias=True)
    (5): ReLU(0, 0.000% Params, 512.0 Mac, 0.000% MACs, inplace=True)
    (6): Linear(271.89 k, 1.013% Params, 271.89 KMac, 0.000% MACs, in_features=512, out_features=530, bias=True)
  )
)
FLOPs: 69.36 GMac, Parameters: 26.84 M
Model 1 Params: 16871696, Model 2 Params: 26837410
推理时间: 1186.38 ms
Epoch 0	Test (client-0):	Loss 0.9216 (0.9216)	Prec@1 84.766 (84.766)
 * Prec@1 78.962
Best Average Validation Accuracy is 78.96193765114472
Generating IR ...... (may take a while)
run the attack for training time
…
